wake_word_stop_lite.tflite (tflite, 71640 bytes, 9 tensors)

sequential/conv2d/BiasAdd/ReadVariableOp f4 [32]
-0.037501715 0.097541735 -0.025719833 -0.030430513 -0.0074970145 -0.13267331 -0.054102745 -0.13094375
-0.019310595 0.038325764 -0.15057099 -0.047467988 0.03216201 -0.031764273 0.024445403 -0.07293926
-0.1878799 -0.11213015 0.20253754 0.04673379 -0.119232364 -0.09030004 0.041061696 0.034710176
0.010376374 -0.06282947 -0.012573476 -0.12264279 -0.02750924 -0.10382007 -0.18864113 -0.11123006
00000000: 669b 19bd f6c3 c73d 66b2 d2bc 6949 f9bc
00000010: 84a9 f5bb 83db 07be d79a 5dbd 1e16 06be
00000020: 4131 9ebc 7afb 1c3d 482f 1abe cb6d 42bd
00000030: 50bc 033d 411b 02bd ba41 c83c 2e61 95bd
00000040: 9763 40be 7ea4 e5bd 0066 4f3e ee6b 3f3d
00000050: 1930 f4bd 3aef b8bd 4f30 283d 422c 0e3d
00000060: ab01 2a3c bdac 80bd fb00 4ebc 252c fbbd
00000070: 0f5b e1bc 9e9f d4bd 242b 41be 96cc e3bd

sequential/conv2d_1/BiasAdd/ReadVariableOp f4 [32]
-0.020273156 -0.3145224 -0.16397859 0.009620654 -0.14414522 0.04817287 -0.07502366 -0.17769696
-0.23779844 0.11791382 -0.5062317 -0.48054603 0.01957373 -0.21859838 -0.19715866 -0.06642378
-0.026553525 -0.15719321 -0.20435731 0.09838666 0.010523866 0.026395924 -0.037667397 -0.13692962
-0.10313221 -0.15536399 0.029818961 -0.07317512 0.03953382 -0.1237702 -0.07803965 -0.12548718
00000000: e413 a6bc 1409 a1be 01ea 27be f39f 1d3c
00000010: ce9a 13be ea50 453d 01a6 99bd 31f6 35be
00000020: 6f81 73be cd7c f13d 6798 01bf 210a f6be
00000030: 1659 a03c 41d8 5fbe f6e3 49be 3109 88bd
00000040: c786 d9bc 42f7 20be 0b43 51be f27e c93d
00000050: 4b6c 2c3c 443c d83c 2149 1abd 4737 0cbe
00000060: fb36 d3bd bd17 1fbe e546 f43c d6dc 95bd
00000070: 37ee 213d 3b7b fdbd 41d3 9fbd b67f 00be

sequential/conv2d_2/BiasAdd/ReadVariableOp f4 [64]
-0.3457439 -0.24319637 -0.06021018 0.022187548 -0.34629092 0.12507573 -0.3400767 -0.106315106
0.20544147 -0.2878368 -0.35287958 -0.487737 0.00202131 -0.36623144 -0.2676071 -0.32759804
-0.20585239 -0.22240624 -0.1410698 -0.20709059 -0.17687465 0.13471644 -0.21149033 0.088213444
0.1338545 0.08753113 -0.053303123 0.2095984 -0.17766938 -0.192356 -0.19009052 -0.15791671
-0.0730528 -0.37456706 0.6415776 0.122098826 -0.06439281 -0.06879571 0.07151058 -0.37767598
-0.36877772 -0.27630755 -0.27079508 -0.00034309187 0.119469285 -0.25926128 -0.19781873 -0.21516122
-0.2617419 0.1186608 -0.13452841 -0.22950341 -0.30128366 -0.2245554 -0.21977687 -0.29396728
-0.036094587 0.046005037 -0.30774218 -0.19824155 0.12469006 -0.095788546 -0.2692719 -0.2564076
00000000: 5805 b1be 7808 79be f39e 76bd a9c2 b53c
00000010: 0b4d b1be da13 003e 891e aebe bcbb d9bd
00000020: 405f 523e 585f 93be a2ac b4be aab8 f9be
00000030: f477 043b b082 bbbe cc03 89be eeba a7be
00000040: f8ca 52be 76be 63be 9a74 10be 8e0f 54be
00000050: a11e 35be 1bf3 093e ec90 58be 40a9 b43d
00000060: 2711 093e 8543 b33d 6054 5abd f7a0 563e
00000070: f6ee 35be f9f8 44be 17a7 42be ebb4 21be
00000080: b59c 95bd 41c7 bfbe 6e3e 243f f30e fa3d
00000090: 61e0 83bd c4e4 8cbd 2474 923d bf5e c1be
000000a0: 6fd0 bcbe 2f78 8dbe a7a5 8abe 03e1 b3b9
000000b0: 50ac f43d e5bd 84be fe90 4abe 3953 5cbe
000000c0: 0903 86be 6f04 f33d d1c1 09be f102 6bbe
000000d0: da41 9abe daf1 65be 300d 61be e182 96be
000000e0: ebd7 13bd c76f 3c3d 6290 9dbe d5ff 4abe
000000f0: 815d ff3d c92c c4bd 02de 89be db47 83be

sequential/conv2d/Conv2D f4 [32, 2, 2, 1]
0.07295803 0.054612458 -0.20917213 0.20349465 0.055800106 0.12945072 -0.06382627 0.06725737
0.034656562 -0.11509755 -0.2401514 0.13551642 0.034317486 -0.08186214 -0.13564962 0.12933855
0.10153158 -0.11386755 0.10915577 -0.041446213 -0.0632942 0.03175801 0.24094093 -0.24895154
-0.041862663 0.11102791 -0.09999291 0.07733498 0.13004775 -0.07642633 0.12497173 -0.14566097
0.034428414 0.24016121 0.13882202 0.21479209 -0.15903895 0.19243817 -0.14190215 0.21611992
-0.18826024 0.14279594 0.17498487 -0.073616005 -0.024458801 0.12058268 -0.22457077 -0.065959625
-0.014401368 -0.11117743 0.052918795 0.056538295 0.20867683 -0.040672135 0.06855314 -0.04479128
0.23967786 -0.23924927 0.10369262 0.0378792 -0.049096983 -0.2141787 -0.01228617 -0.22689682
-0.0702371 0.16618207 -0.018381838 -0.12259703 0.19734812 -0.25342003 -0.2757755 0.21027595
0.13226402 -0.08354652 -0.27203068 0.38768792 0.08049875 -0.009068939 0.24599518 0.14740644
0.026638528 -0.027628377 0.2964177 -0.24446934 0.21719429 -0.112398125 -0.29416448 -0.04084716
-0.16056599 0.20569307 0.33855283 -0.25887823 0.09549468 -0.25606823 0.017566929 -0.22086199
0.3032283 -0.26840827 -0.092551135 0.06200757 0.054147393 -0.06968236 0.010106234 0.05085846
-0.051558364 0.0021064233 0.07369417 -0.005596477 0.13487066 0.09389689 -0.21977046 -0.03810794
-0.12312802 -0.06542808 0.25434524 0.083206415 -0.16011088 0.10179764 -0.30472323 0.2650527
0.11749429 0.036540568 0.1930443 -0.24060594 -0.0045915185 0.015617817 0.36009687 -0.34247684
00000000: 056b 953d 50b1 5f3d 3831 56be e760 503e
00000010: a78e 643d bb8e 043e 59b7 82bd 3bbe 893d
00000020: 0af4 0d3d 44b8 ebbd 40ea 75be d1c4 0a3e
00000030: 7e90 0c3d 56a7 a7bd bce7 0abe 5371 043e
00000040: caef cf3d 6433 e9bd 0f8d df3d 81c3 29bd
00000050: 64a0 81bd b014 023d 38b9 763e 27ed 7ebe
00000060: 2f78 2bbd 9a62 e33d 15c9 ccbd cd61 9e3d
00000070: 3d2b 053e 6885 9cbd 2ef1 ff3d 2628 15be
00000080: cf04 0d3d d2ec 753e 5c27 0e3e 75f2 5b3e
00000090: 1bdb 22be 830e 453e cc4e 11be 8a4e 5d3e
000000a0: 4bc7 40be 1939 123e 3c2f 333e fdc3 96bd
000000b0: d35d c8bc 0df4 f63d e1f5 65be d715 87bd
000000c0: b7f3 6bbc feb0 e3bd 61c1 583d b394 673d
000000d0: 61af 553e d397 26bd 9765 8c3d 1077 37bd
000000e0: 1d6e 753e c3fd 74be cc5c d43d 3827 1b3d
000000f0: eb19 49bd a951 5bbe ef4b 49bc a457 68be
00000100: 78d8 8fbd a22b 2a3e 8295 96bc 2714 fbbd
00000110: a015 4a3e 45c0 81be 7232 8dbe 9452 573e
00000120: 3870 073e 701a abbd 9b47 8bbe 087f c63e
00000130: 87dc a43d e395 14bc 29e6 7b3e b7f1 163e
00000140: 0b39 da3c e854 e2bc 10c4 973e 2c56 7abe
00000150: 2e68 5e3e fd30 e6bd ba9c 96be 5a4f 27bd
00000160: 696b 24be 34a1 523e cc56 ad3e b08b 84be
00000170: b792 c33d 601b 83be 85e8 8f3c a529 62be
00000180: bd40 9b3e cf6c 89be 738b bdbd a6fb 7d3d
00000190: a8c9 5d3d a0b5 8ebd 9e94 253c f650 503d
000001a0: dd2e 53bd eb0b 0a3b f8ec 963d a762 b7bb
000001b0: 891b 0a3e 034d c03d 820b 61be 1217 1cbd
000001c0: 8b2a fcbd 28ff 85bd 8a39 823e 2068 aa3d
000001d0: 1bf4 23be 487b d03d af04 9cbe fdb4 873e
000001e0: d9a0 f03d 90ab 153d 68ad 453e 6761 76be
000001f0: 7374 96bb dfe1 7f3c 9e5e b83e 2059 afbe

sequential/conv2d_1/Conv2D f4 [32, 2, 2, 32]
0.02184759 -0.06764327 0.048235472 -0.20218459 -0.36845604 0.41434318 0.14991972 -0.26603013
-0.10028506 -0.014093434 0.10738845 0.40213117 0.007121769 -0.264072 -0.60437936 0.09274237
0.24677242 -0.19131854 -0.12885009 -0.23198172 -0.32532656 0.12961611 -0.19093968 -0.045444813
-0.4103846 -0.121941194 0.12301441 -0.025065655 -0.045793366 -0.039436523 -0.42842054 -0.09347957
0.041969597 0.38923597 0.043601993 -0.04367324 0.03512665 -0.22572906 -0.0055428273 0.13963823
0.269594 -0.06220525 -0.21680923 0.0331276 0.09618844 0.21958485 0.05120286 0.07674214
0.31756908 -0.043576524 -0.23372869 0.054297663 -0.257935 -0.04898342 -0.15458372 0.06703849
0.12777704 -0.064074956 -0.28798747 0.08496022 -0.09002221 -0.16650413 0.37270755 -0.16652074
0.16678675 0.08181946 -0.41087097 -0.4219263 -0.09619808 -0.08201534 -0.11318685 0.22651203
0.32572594 -0.6857487 -0.17965843 -0.05520368 -0.4042188 0.31162336 0.18951906 -0.092642546
-0.052187387 -0.18357745 -0.020065283 0.37463725 0.19984369 -0.0066416203 -0.13242005 -0.07308135
0.10394251 0.15691116 -0.16201232 0.15496473 -0.09767198 -1.1248667 0.37278754 -0.12888432
-0.38178974 -0.29057106 -0.08753083 0.045532573 -0.027331151 -0.09408165 -0.11769515 0.08944613
-0.27028543 -0.21981473 -0.23141369 -0.0010306402 -0.015683247 -0.16842951 0.32595667 0.007641111
0.13330534 -0.020886647 -0.018560752 -0.13376564 0.031408176 -0.15816213 -0.2369464 0.11596682
-0.12843978 -0.0027842205 -0.14261541 -0.22117904 -0.021253332 -0.08262759 0.1309054 -0.06475871
0.06937688 -0.12492608 0.05105044 0.15347333 0.1920931 0.3616869 0.09503993 -0.1922683
-0.17425816 0.048896436 0.01182898 -0.20399605 0.2278569 -0.025606196 0.14047863 0.10976958
0.028633023 0.11145721 -0.015465721 -0.2838183 0.07528439 -0.17847872 0.068787046 0.035293892
-0.05137175 0.19850054 0.22110577 -0.14723086 0.18228024 0.1669809 0.05420849 0.12859394
0.10154606 0.18695515 0.007853454 -0.061700907 -0.26441443 0.10907492 0.30265355 -0.016797215
-0.06517463 0.10897644 0.3453538 -0.12445773 0.07657524 0.066109076 -0.30445725 0.050704338
-0.03237523 -0.08571753 0.13273527 -0.42669696 -0.37443742 0.0024229353 0.27981433 -0.31253567
0.076178014 -0.15154003 0.051943716 -0.09033744 0.15802886 0.26103982 0.11521317 0.007886409
-0.19218609 -0.27050737 0.10663685 -0.012096818 0.23539829 0.103262626 -0.25517604 0.048148893
-0.01571325 -0.10060152 0.16017008 -0.3411354 -0.0060651847 0.032269996 0.20505534 0.20896831
-0.24795738 -0.20410441 0.012582751 -0.11624129 0.37853086 -0.46012482 0.0724708 0.2634072
-0.1988403 0.11509117 -0.008249969 -0.37962663 0.122100756 0.092686646 -0.05642191 0.03744037
-0.07753999 0.02487318 -0.25721225 -0.22191238 -0.19928719 0.11291673 0.21271423 0.15771738
0.013041017 0.27103126 0.15988581 -0.2229038 -0.17703885 0.19731219 -0.34223714 -0.070886545
0.0004198263 -0.20964286 0.16914122 -0.05272219 0.33733782 -0.020555472 0.37394476 -0.17118397
-0.2848857 -0.16240709 -0.12273188 0.09113991 -0.18834221 0.2680486 0.30784342 0.4182794
00000000: b8f9 b23c 8e88 8abd 8f92 453d 7a09 4fbe
00000010: 45a6 bcbe ca24 d43e 8e84 193e 1a35 88be
00000020: 4162 cdbd 26e8 66bc 7aee db3d 23e4 cd3e
00000030: ba5d e93b 7234 87be 9bb8 1abf b6ef bd3d
00000040: e9b1 7c3e 02e9 43be 47f1 03be 9e8c 6dbe
00000050: 3491 a6be 16ba 043e b185 43be 5724 3abd
00000060: ee1d d2be 4ebc f9bd fbee fb3d 7d56 cdbc
00000070: d391 3bbd 3188 21bd f059 dbbe 3772 bfbd
00000080: 50e8 2b3d f049 c73e 0198 323d b6e2 32bd
00000090: f6e0 0f3d 8525 67be 9ba0 b5bb 53fd 0e3e
000000a0: 3a08 8a3e efca 7ebd 3d03 5ebe ceb0 073d
000000b0: 72fe c43d dada 603e 17ba 513d fc2a 9d3d
000000c0: 6a98 a23e 4c7d 32bd 9356 6fbe 3a67 5e3d
000000d0: 0e10 84be d7a2 48bd 324b 1ebe 7a4b 893d
000000e0: fcd7 023e bb39 83bd 1873 93be a0ff ad3d
000000f0: 905d b8bd 0f80 2abe 86d3 be3e 6a84 2abe
00000100: 25ca 2a3e f690 a73d ae5d d2be b906 d8be
00000110: 8003 c5bd a9f7 a7bd 82ce e7bd c5f2 673e
00000120: 8dc5 a63e 3a8d 2fbf 61f8 37be 411d 62bd
00000130: c4f5 cebe 198d 9f3e 4911 423e 60bb bdbd
00000140: 71c2 55bd bafb 3bbe f35f a4bc 74d0 bf3e
00000150: d3a3 4c3e f3a1 d9bb 1f99 07be adab 95bd
00000160: d0df d43d 52ad 203e 8fe6 25be 13af 1e3e
00000170: 3f08 c8bd a2fb 8fbf 02de be3e 40fa 03be
00000180: f279 c3be bbc5 94be 5d43 b3bd 5d80 3a3d
00000190: 94e5 dfbc e1ad c0bd 280a f1bd 882f b73d
000001a0: da62 8abe 1d17 61be b6f7 6cbe 8c16 87ba
000001b0: 277a 80bc c978 2cbe cbe3 a63e 4962 fa3b
000001c0: 3281 083e 791a abbc b80c 98bc dcf9 08be
000001d0: dca5 003d 41f5 21be 14a2 72be 0380 ed3d
000001e0: b885 03be 7877 36bb c609 12be c27c 62be
000001f0: 781b aebc a738 a9bd 110c 063e 37a0 84bd
00000200: 7715 8e3d 3fd9 ffbd 441a 513d 1d28 1d3e
00000210: 0eb4 443e 062f b93e 4ba4 c23d fbe1 44be
00000220: bb70 32be a147 483d 57ce 413c 57e4 50be
00000230: 5253 693e 16c4 d1bc a1d9 0f3e e0ce e03d
00000240: cd8f ea3c ad43 e43d ef63 7dbc a250 91be
00000250: b42e 9a3d 20c3 36be 39e0 8c3d 5490 103d
00000260: 2f6b 52bd ba43 4b3e 8d69 623e b0c3 16be
00000270: aca7 3a3e 0bfd 2a3e b909 5e3d 21ae 033e
00000280: 61f7 cf3d 2c71 3f3e c6ab 003c 17ba 7cbd
00000290: 5461 87be ac62 df3d 68f5 9a3e 509a 89bc
000002a0: 477a 85bd 0a2f df3d 37d2 b03e b2e3 febd
000002b0: 7bd3 9c3d 3264 873d d2e1 9bbe 5aaf 4f3d
000002c0: e49b 04bd ac8c afbd c1eb 073e 0678 dabe
000002d0: 43b6 bfbe 1cca 1e3b d343 8f3e ad04 a0be
000002e0: 3803 9c3d 4f2d 1bbe efc2 543d d602 b9bd
000002f0: 51d2 213e 03a7 853e e2f4 eb3d ff35 013c
00000300: 6ecc 44be f17f 8abe 6c64 da3d bb31 46bc
00000310: 400c 713e 5b7b d33d 6fa6 82be c637 453d
00000320: 13b9 80bc 2b08 cebd a003 243e 4da9 aebe
00000330: 75be c6bb 8b2d 043d 07fa 513e cafb 553e
00000340: 8ae8 7dbe bf00 51be e227 4e3c ea0f eebd
00000350: ccce c13e 7b95 ebbe 926b 943d 4fdd 863e
00000360: cb9c 4bbe ebb4 eb3d e12a 07bc 6c5e c2be
00000370: f60f fa3d 7fd2 bd3d a91a 67bd 135b 193d
00000380: 49cd 9ebd d7c2 cb3c 53b1 83be 003d 63be
00000390: f111 4cbe e340 e73d c2d1 593e aa80 213e
000003a0: fda9 553c 9cc4 8a3e 1bb9 233e e540 64be
000003b0: ac49 35be 350c 4a3e b539 afbe f72c 91bd
000003c0: 221c dc39 9eac 56be 5b33 2d3e 39f3 57bd
000003d0: 8bb7 ac3e f363 a8bc b075 bf3e da4a 2fbe
000003e0: 8adc 91be 0b4e 26be da5a fbbd 90a7 ba3d
000003f0: c8dc 40be ab3d 893e a79d 9d3e b828 d63e

sequential/conv2d_2/Conv2D f4 [64, 2, 2, 32]
-0.08420889 -0.020255808 0.09403384 0.13241357 0.025629561 -0.100404695 0.031657178 0.016957602
0.08763128 -0.053065293 -0.15496129 0.043861933 -0.08999507 -0.09098681 -0.106177695 0.13224314
-0.045301203 -0.1710483 0.062447753 0.03121624 0.14410216 0.038771603 -0.12639348 0.17623405
0.15342279 -0.2170644 -0.061009355 0.009707635 -0.093894064 0.014637094 0.02766091 -0.23975594
-0.0035235311 0.06154557 -0.06363553 -0.0010999999 -0.07164599 -0.04708091 -0.005859087 0.03227098
-0.09757477 -0.037869863 -0.26054683 0.16978921 -0.26390252 -0.3303544 -0.21413773 0.19859225
0.24352306 -0.019204352 0.006676827 0.1055449 0.0036061206 0.094878934 0.14096169 -0.025487438
0.2859128 -0.018224563 0.010511828 0.08239319 -7.607811e-05 -0.26042768 0.17719595 -0.092744604
0.19604036 -0.04443175 -0.06860275 -0.20442739 -0.30591905 0.0254576 0.031896003 0.00618867
-0.09622946 -0.018727675 0.051598556 -0.1456798 0.2183902 0.085463405 0.06698501 -0.04601575
-0.07674348 0.04150886 0.03460066 -0.05832821 -0.14676589 0.054342717 0.09122962 -0.0065010595
-0.13799505 0.046173178 0.056441233 -0.09574313 -0.06675364 -0.11461474 -0.16479217 0.049781103
0.106350414 0.13728623 -0.31326815 0.03522898 -0.054612655 -0.015215763 0.13040851 -0.0537465
-0.06320658 0.040332947 0.09051056 -0.003517313 -0.10619834 -0.2501836 0.14296514 -0.15505654
-0.04529097 0.07123645 -0.05992315 0.08615143 -0.026542265 0.15291987 0.138539 -0.0016569879
-0.19551755 0.054185394 0.057772573 0.20170839 -0.2300104 -0.04309477 -0.07986152 -0.1302112
0.014568119 0.071374446 0.08071316 -0.016625192 0.083166026 -0.2515316 0.044385005 0.048052747
-0.12056188 0.100195505 0.0126306005 0.024159402 0.050369907 -0.05864586 -0.04277745 -0.3489181
0.14293388 -0.15284806 -0.033643242 0.10987099 -0.055101506 -0.08649163 0.076750256 -0.34373584
-0.12801121 -0.011359537 0.0190181 -0.017148955 -0.14203328 0.15776749 -0.24858296 0.1935709
0.25426713 -0.19619225 -0.046516735 -0.18616079 -0.07291023 0.31000438 -0.012395199 -0.14712846
0.23801608 -0.2548215 -0.17461169 -0.3209465 -0.093211316 0.036029246 0.23836276 0.07351628
-0.28622657 -0.108314775 -0.011862673 -0.09417731 0.30833232 0.053272706 0.06921298 0.32811219
0.01628941 0.099597014 -0.16022186 0.14968032 0.2978532 0.0646934 -0.010263148 -0.20328891
0.12667674 0.02010745 -0.3417084 0.036156215 0.07061178 -0.20288716 0.17221527 0.28593478
0.086857475 -0.12842338 -0.066256866 0.12119881 -0.1281834 -0.118069224 -0.1621061 0.3558051
0.024923496 0.08388026 -0.07616468 0.11284231 -0.038177554 0.1813661 0.19794215 0.0856704
-0.07016417 -0.008806328 0.178727 0.20978084 -0.27602473 -0.18698598 0.32830387 -0.24474859
-0.08004834 -0.035340104 0.25381255 -0.11473568 -0.1124772 -0.14788735 -0.17275038 0.1252662
-0.015033621 -0.12563759 0.21207272 0.07619937 0.10737421 0.15455957 0.03817439 0.20706977
-0.051954743 -0.025855592 0.22096463 0.08146612 0.110779606 -0.1365173 0.16143936 0.17591919
-0.1665528 0.6459188 -0.230096 0.023248427 -0.05459008 0.00711687 -0.045524266 0.09269719
00000000: b675 acbd 82ef a5bc d094 c03d 6c97 073e
00000010: 16f5 d13c faa0 cdbd f5aa 013d abea 8a3c
00000020: 0778 b33d fe5a 59bd 2cae 1ebe 92a8 333d
00000030: 564f b8bd 4b57 babd b173 d9bd bf6a 073e
00000040: c18d 39bd 4927 2fbe 37c9 7f3d 33b9 ff3c
00000050: 848f 133e f9ce 1e3d 4b6d 01be b376 343e
00000060: dd1a 1d3e 2146 5ebe f2e4 79bd c60c 1f3c
00000070: 884b c0bd 6cd0 6f3c 2299 e23c 9582 75be
00000080: 0beb 66bb 3517 7c3d 5853 82bd df2d 90ba
00000090: 22bb 92bd ead7 40bd 96fd bfbb 932e 043d
000000a0: 48d5 c7bd 6e1d 1bbd 6566 85be 39dd 2d3e
000000b0: 3b1e 87be 3624 a9be ec46 5bbe c45b 4b3e
000000c0: 1c5e 793e 7252 9dbc 49c9 da3b ed27 d83d
000000d0: aa54 6c3b e34f c23d 4358 103e 08cb d0bc
000000e0: 2a63 923e ae4b 95bc cd39 2c3c c3bd a83d
000000f0: 208c 9fb8 c756 85be db72 353e e2f0 bdbd
00000100: cebe 483e 11fe 35bd 997f 8cbd 6a55 51be
00000110: 6ca1 9cbe 758c d03c 62a5 023d 54ca ca3b
00000120: f313 c5bd c86a 99bc 0259 533d 162d 15be
00000130: aea1 5f3e 7007 af3d 702f 893d 037b 3cbd
00000140: b02b 9dbd 3205 2a3d 6cb9 0d3d 90e9 6ebd
00000150: cc49 16be 7896 5e3d 98d6 ba3d d706 d5bb
00000160: 934e 0dbe 1620 3d3d ec2e 673d f914 c4bd
00000170: 22b6 88bd 22bb eabd 47bf 28be 45e7 4b3d
00000180: 3fce d93d c394 0c3e af64 a0be 434c 103d
00000190: 85b1 5fbd 894b 79bc cf89 053e 4a25 5cbd
000001a0: 7472 81bd 2934 253d 9a5d b93d b882 66bb
000001b0: 847e d9bd 1118 80be 7465 123e 24c7 1ebe
000001c0: 0683 39bd 6ae4 913d fa71 75bd 2970 b03d
000001d0: 2a6f d9bc 0797 1c3e 2bdd 0d3e 4a2f d9ba
000001e0: c135 48be 81f1 5d3d efa2 6c3d a58c 4e3e
000001f0: d987 6bbe 2484 30bd 708e a3bd 1656 05be
00000200: 1faf 6e3c c42c 923d f14c a53d 8e31 88bc
00000210: f352 aa3d c0c8 80be 0dcd 353d f5d2 443d
00000220: 26e9 f6bd 4d33 cd3d 94f0 4e3c f0e9 c53c
00000230: ad50 4e3d a436 70bd 6837 2fbd 65a5 b2be
00000240: 425d 123e 3484 1cbe 7fcd 09bd 0b04 e13d
00000250: 1eb2 61bd 8622 b1bd 3d2f 9d3d 25fe afbe
00000260: 5f15 03be 5a1d 3abc d9cb 9b3c f77b 8cbc
00000270: 2c71 11be cd8d 213e 888c 7ebe 7337 463e
00000280: 4d2f 823e 9fe6 48be 5588 3ebd efa0 3ebe
00000290: f551 95bd e5b8 9e3e 3c15 4bbc d8a8 16be
000002a0: 7dba 733e f777 82be 68cd 32be 1a53 a4be
000002b0: 93e5 bebd 6793 133d 5e15 743e b48f 963d
000002c0: 4a8c 92be 23d4 ddbd a85b 42bc 09e0 c0bd
000002d0: bcdd 9d3e 7b34 5a3d 89bf 8d3d 52fe a73e
000002e0: 5e71 853c 85f9 cb3d 3311 24be cc45 193e
000002f0: 3780 983e f97d 843d c326 28bc f82a 50be
00000300: 8cb7 013e 61b8 a43c 67f4 aebe 8a18 143d
00000310: e99c 903d a7c1 4fbe 3359 303e 0b66 923e
00000320: 55e2 b13d 6b81 03be aeb1 87bd 1537 f83d
00000330: 8242 03be 47ce f1bd 24ff 25be 162c b63e
00000340: 5c2c cc3c 6ac9 ab3d 3afc 9bbd de19 e73d
00000350: 1160 1cbd 09b8 393e 59b1 4a3e f673 af3d
00000360: 3bb2 8fbd 6b48 10bc 3604 373e cad0 563e
00000370: 1d53 8dbe 4179 3fbe 7217 a83e 609f 7abe
00000380: 62f0 a3bd c9c0 10bd b8f3 813e 8afa eabd
00000390: 725a e6bd c86f 17be 7ae5 30be c845 003e
000003a0: 944f 76bc 24a7 00be 9729 593e 6a0e 9c3d
000003b0: 03e7 db3d dd44 1e3e c05c 1c3d 190a 543e
000003c0: 7fce 54bd 1bcf d3bc 8d44 623e b6d7 a63d
000003d0: 6be0 e23d 31cb 0bbe 5c50 253e 2924 343e
000003e0: d18c 2abe ef5a 253f 499e 6bbe 7c73 be3c
000003f0: d999 5fbd a234 e93b a777 3abd 06d8 bd3d

sequential/dense/BiasAdd/ReadVariableOp f4 [64]
-0.07753765 -0.27947786 -0.20927814 -0.05514134 -0.059912164 0.13091645 -0.26413655 0.016870728
0.06069334 0.0046575116 -0.19310693 -0.2635558 -0.25485596 -0.32905668 0.045927588 -0.21413074
-0.26376718 0.012579677 0.026298713 -0.17022999 0.06689464 -0.23534523 -0.26038706 -0.15781297
-0.3448628 -0.17408706 -0.05921748 -0.25752026 0.04429431 -0.02388312 0.03749531 -0.263133
0.04642752 0.068279535 -0.014960115 -0.24609393 -0.18819025 0.013624552 0.08277726 -0.2512035
0.08045127 0.03498541 0.083223835 -0.24228364 0.0065400964 0.021386622 0.047859635 -0.24474652
0.084816076 -0.23719496 0.08470135 0.16799463 -0.24840543 -0.31322762 -0.25904742 -0.066842444
-0.007869053 -0.24110739 -0.27561757 0.008356517 -0.012561307 0.05211902 -0.22109136 -0.2923447
00000000: 0fcc 9ebd b917 8fbe 024d 56be e3db 61bd
00000010: 7566 75bd f60e 063e e83c 87be 7b34 8a3c
00000020: 9499 783d 0a9e 983b d3bd 45be c9f0 86be
00000030: 7b7c 82be 1e7a a8be 911e 3c3d 1745 5bbe
00000040: 7e0c 87be fd1a 4e3c 6670 d73c c550 2ebe
00000050: 0f00 893d 57fe 70be 7451 85be b999 21be
00000060: db91 b0be e143 32be 078e 72bd b2d9 83be
00000070: f36d 353d 88a6 c3bc af94 193d 5eb9 86be
00000080: c92a 3e3d 24d6 8b3d 451b 75bc 0c00 7cbe
00000090: f2b4 40be 8339 5f3c 2087 a93d bf9d 80be
000000a0: a3c3 a43d dc4c 0f3d 4271 aa3d 3419 78be
000000b0: 4e4e d63b ff32 af3c 7708 443d d59e 7abe
000000c0: 0db4 ad3d 3ce3 72be e777 ad3d c906 2c3e
000000d0: fe5d 7ebe 5f5f a0be dda1 84be b1e4 88bd
000000e0: 33ed 00bc dbe4 76be bf1d 8dbe c6e9 083c
000000f0: f1cd 4dbc c17a 553d c665 62be 34ae 95be

sequential/dense/MatMul f4 [64, 64]
0.058600776 -0.005654239 -0.17103074 -0.02434493 0.120201424 -0.28061342 -0.14988911 0.46991658
-0.15116137 0.0020739844 0.20890875 0.06846011 -0.26739877 0.0057898657 0.35346034 0.34147474
0.3713833 0.2817917 0.44209325 0.0492073 0.04365605 -0.27504355 0.23187475 -0.29331207
0.014840708 -0.16784321 -0.115189135 -0.35313132 0.42130384 0.14342783 -0.014999854 0.08349782
0.21723063 0.3199455 -0.17313328 -0.23582765 -0.055557515 -0.23434886 -0.22917685 0.17026603
0.19345318 0.24694785 0.18296288 0.06307472 -0.12191598 0.44219306 0.062317535 0.10569237
-0.044916444 -0.3104531 0.36903375 0.07169811 0.37356248 0.33694628 0.4012991 0.286795
-0.15419854 -0.13427325 0.21912125 0.12824833 -0.3745997 -0.016565781 0.042048205 0.33461747
-0.053688575 -0.348177 0.31972235 0.39268142 -0.004772244 0.14730953 0.026575029 -0.44257307
0.12448212 0.10837613 -0.07483076 0.04889025 0.11260228 -0.12597613 -0.3256391 -0.17744501
-0.376238 -0.24835743 -0.16526127 -0.25234175 -0.10737918 0.15778916 -0.27145356 0.2608195
-0.34441945 0.085990064 0.2387265 0.34359986 -0.2075436 -0.2772266 0.20000665 -0.08884166
-0.29349586 -0.21165393 -0.058008794 0.28992656 0.14839804 0.109251715 0.21536587 -0.1575406
-0.23915431 -0.09056726 -0.31598082 -0.12251791 0.30079558 -0.36912268 -0.169006 -0.13097472
-0.20051649 0.246612 -0.17002115 -0.4499527 -0.076051645 -0.29762563 -0.17171425 -0.28032446
-0.08605264 0.1841837 -0.11203366 -0.03430209 0.29452717 -0.38952938 -0.14550987 -0.035681758
0.062353984 -0.11055799 0.40294343 0.46679428 -0.0626031 0.1359627 -0.12837403 -0.4176633
0.1348633 -0.07139695 -0.13823295 -0.13218363 0.19331178 -0.07068316 -0.2311851 0.021202574
-0.36354613 -0.21515182 -0.34039268 -0.14970256 -0.13936244 0.035330728 -0.18027279 0.17151445
-0.16759028 0.22157629 0.29138762 0.14823948 -0.20570603 -0.1118106 0.23851301 -0.25731075
-0.25897092 -0.08194231 -0.014265295 0.2828452 0.2124555 0.10969921 0.30742106 -0.12451491
-0.21044128 -0.35831234 -0.27171275 0.09268231 0.16810906 -0.013379428 -0.35328037 -0.4687934
-0.14215238 0.17595775 -0.05993831 -0.13435026 -0.10633546 -0.1453888 -0.26560572 -0.36692733
-0.16742049 0.036025085 -0.13960946 -0.26555023 0.33152634 -0.14001353 -0.10034089 -0.22841161
0.14816774 0.23589396 0.059413146 -0.12449067 0.23222207 -0.07730221 0.057598718 0.25050703
-0.28595564 0.2916595 0.0832472 0.21394625 -0.2830421 0.092000104 0.25305453 0.50355947
0.36133936 0.33421534 0.2550374 -0.016481385 0.31419516 -0.19700344 0.38307327 -0.27326566
0.16942208 -0.113214105 -0.19443278 -0.30189154 0.17567883 0.2530431 0.07404594 0.114826284
0.14633602 0.08089342 0.12899478 -0.21151732 -0.23753256 -0.20678724 -0.29585493 0.28812385
0.33303255 0.12958866 0.30497003 -0.0895337 -0.14600387 0.14424713 0.11237449 0.29658535
0.04867159 -0.12602253 0.24641562 0.33088675 0.24402708 0.2059234 0.24244733 0.25693876
-0.0812267 -0.16138509 -0.043883637 -0.016043205 -0.28701532 0.15961055 0.25528115 0.29018003
00000000: 5e07 703d 3247 b9bb af22 2fbe 056f c7bc
00000010: 2a2c f63d 90ac 8fbe 887c 19be e898 f03e
00000020: 0cca 1abe afeb 073b 2dec 553e d034 8c3d
00000030: 7ee8 88be eab8 bd3b c1f8 b43e c7d5 ae3e
00000040: f425 be3e 0047 903e 0c5a e23e 988d 493d
00000050: b0d0 323d 82d2 8cbe 9370 6d3e 002d 96be
00000060: 7126 733c 17df 2bbe 48e8 ebbd a1cd b4be
00000070: 23b5 d73e bfde 123e f3c1 75bc e800 ab3d
00000080: b571 5e3e e6cf a33e da49 31be ce7c 71be
00000090: 4790 63bd 26f9 6fbe 56ad 6abe 385a 2e3e
000000a0: 9718 463e e6df 7c3e 9f5a 3b3e 522d 813d
000000b0: 16af f9bd 2167 e23e ac40 7f3d 3e75 d83d
000000c0: 4efa 37bd b5f3 9ebe fef1 bc3e 75d6 923d
000000d0: 9543 bf3e 3984 ac3e 1377 cd3e cbd6 923e
000000e0: 39e6 1dbe ed7e 09be 5261 603e 8853 033e
000000f0: 88cb bfbe f6b4 87bc bd3a 2c3d fb52 ab3e
00000100: 8de8 5bbd 4144 b2be a6b2 a33e 8a0d c93e
00000110: 7c60 9cbb 4fd8 163e e0b3 d93c f098 e2be
00000120: 7bf0 fe3d 4ef4 dd3d df40 99bd 2541 483d
00000130: 069c e63d e3ff 00be 2bba a6be 25b4 35be
00000140: 44a2 c0be 6951 7ebe 403a 29be f032 81be
00000150: 9ee9 dbbd 7b93 213e f6fb 8abe 228a 853e
00000160: bf57 b0be 8f1b b03d b874 743e 52ec af3e
00000170: 4f86 54be a5f0 8dbe 8bce 4c3e 9ef2 b5bd
00000180: 1745 96be cfbb 58be a19a 6dbd 4171 943e
00000190: a8f5 173e 5dbf df3d df88 5c3e 5352 21be
000001a0: dee4 74be 547b b9bd 3dc8 a1be acea fabd
000001b0: e101 9a3e a6fd bcbe e90f 2dbe 3d1e 06be
000001c0: 3254 4dbe db87 7c3e 061a 2ebe 3360 e6be
000001d0: f7c0 9bbd 6362 98be dcd5 2fbe b086 8fbe
000001e0: 5e3c b0bd a79a 3c3e e771 e5bd 5980 0cbd
000001f0: 44cc 963e 6570 c7be 8a00 15be 0927 12bd
00000200: e466 7f3d 3a6c e2bd 9a4e ce3e a9ff ee3e
00000210: 0e36 80bd ce39 0b3e 7b74 03be f7d7 d5be
00000220: 9b19 0a3e 9038 92bd f08c 0dbe 255b 07be
00000230: 86f3 453e 55c2 90bd c9bb 6cbe 05b1 ad3c
00000240: b822 babe c250 5cbe f347 aebe a14b 19be
00000250: 07b5 0ebe f4b6 103d 6e99 38be 7ca1 2f3e
00000260: c99c 2bbe e5e4 623e c230 953e 17cc 173e
00000270: 9aa4 52be f5fc e4bd c13c 743e 3cbe 83be
00000280: d697 84be 5fd1 a7bd fcb8 69bc 16d1 903e
00000290: ef8d 593e fba9 e03d 4b66 9d3e ac01 ffbd
000002a0: eb7d 57be b774 b7be ef1d 8bbe 39d0 bd3d
000002b0: c824 2c3e 6335 5bbc 2ae1 b4be b005 f0be
000002c0: 6590 11be 452e 343e e081 75bd 1d93 09be
000002d0: 68c6 d9bd cde0 14be 79fd 87be e6dd bbbe
000002e0: 4770 2bbe 0a8f 133d c8f5 0ebe 33f6 87be
000002f0: d2bd a93e b55f 0fbe 867f cdbd bce4 69be
00000300: 49b9 173e 308e 713e 335b 733d f7f4 febd
00000310: 9fcb 6d3e 9f50 9ebd a2ec 6b3d 7542 803e
00000320: c768 92be 6554 953e 827d aa3d ba14 5b3e
00000330: e5ea 90be 8d6a bc3d 5d90 813e 46e9 003f
00000340: 7901 b93e 461e ab3e 4394 823e f803 87bc
00000350: 30de a03e 45bb 49be 2e22 c43e 7ae9 8bbe
00000360: fb7c 2d3e ccdc e7bd 6319 47be 8791 9abe
00000370: 27e5 333e dd8e 813e 66a5 973d 0b2a eb3d
00000380: 1cd9 153e 73ab a53d 3517 043e ff97 58be
00000390: bc3b 73be 09c0 53be 4c7a 97be f884 933e
000003a0: 3e83 aa3e e4b2 043e 0825 9c3e 725d b7bd
000003b0: 0a82 15be 85b5 133e 9924 e63d 09da 973e
000003c0: dc5b 473d 0d0c 01be 6054 7c3e fd69 a93e
000003d0: 3ce2 793e 95dd 523e 1d44 783e 7a8d 833e
000003e0: 2f5a a6bd 2242 25be 54bf 33bd 0a6d 83bc
000003f0: acf3 92be f370 233e 36b4 823e 7a92 943e

sequential/dense_1/MatMul f4 [1, 64]
-0.057614308 0.22588043 0.1486508 -0.09481514 -0.1051489 -0.09490765 0.14419834 -0.11936329
-0.07880244 -0.08126845 0.25509435 0.19464038 0.21758297 0.13399215 -0.09323047 0.204672
0.027978744 -0.066996776 -0.11375895 0.13010691 -0.07896599 0.15081482 0.26226625 0.03501006
0.17663024 0.14135689 -0.1178284 0.1690065 -0.10058794 -0.059033506 -0.06890578 0.12006003
-0.10366023 -0.08899044 -0.044443343 0.1886166 0.09527733 -0.002831902 -0.099873655 0.16765863
-0.17635237 -0.04646999 -0.097049676 0.15259367 -0.06124399 -0.0879135 -0.035389986 0.058161385
-0.05702956 0.19869035 -0.08228444 -0.035723574 0.07735913 0.05490948 0.2477535 -0.03948597
0.0128460955 0.09662626 0.16578995 -0.10626051 -0.13970998 0.0013507418 0.16213498 0.070966996
00000000: fbfc 6bbd 334d 673e ea37 183e 712e c2bd
00000010: 4e58 d7bd f15e c2bd bba8 133e be74 f4bd
00000020: 2c63 a1bd 1370 a6bd ba9b 823e cf4f 473e
00000030: 12ce 5e3e 3d35 093e 9eef bebd 8995 513e
00000040: ae33 e53c 9b35 89bd 74fa e8bd bf3a 053e
00000050: ecb8 a1bd 336f 1a3e c347 863e b566 0f3d
00000060: 8fde 343e dcbf 103e 0450 f1bd 0a10 2d3e
00000070: 0d01 cebd 1ecd 71bd 791e 8dbd 08e2 f53d
00000080: d14b d4bd 9f40 b6bd 390a 36bd b624 413e
00000090: c320 c33d 6e97 39bb 8f8a ccbd b4ae 2b3e
000000a0: b795 34be 5157 3ebd fbc1 c6bd 8441 1c3e
000000b0: fada 7abd fe0b b4bd 17f5 10bd a23a 6e3d
000000c0: d497 69bd 7c75 4b3e bf84 a8bd e252 12bd
000000d0: 776e 9e3d c3e8 603d 18b3 7d3e 0abc 21bd
000000e0: 6e78 523c fde3 c53d d7c4 293e 1c9f d9bd
000000f0: 2210 0fbe 600b b13a b606 263e 2557 913d
